2024-06-13 07:07:44,742 ----------------------------------------------------------------------------------------------------
2024-06-13 07:07:44,743 Model: "SequenceTagger(
  (embeddings): TransformerWordEmbeddings(
    (model): XLMRobertaModel(
      (embeddings): XLMRobertaEmbeddings(
        (word_embeddings): Embedding(250003, 384)
        (position_embeddings): Embedding(514, 384, padding_idx=1)
        (token_type_embeddings): Embedding(1, 384)
        (LayerNorm): LayerNorm((384,), eps=1e-05, elementwise_affine=True)
        (dropout): Dropout(p=0.1, inplace=False)
      )
      (encoder): XLMRobertaEncoder(
        (layer): ModuleList(
          (0-5): 6 x XLMRobertaLayer(
            (attention): XLMRobertaAttention(
              (self): XLMRobertaSelfAttention(
                (query): Linear(in_features=384, out_features=384, bias=True)
                (key): Linear(in_features=384, out_features=384, bias=True)
                (value): Linear(in_features=384, out_features=384, bias=True)
                (dropout): Dropout(p=0.1, inplace=False)
              )
              (output): XLMRobertaSelfOutput(
                (dense): Linear(in_features=384, out_features=384, bias=True)
                (LayerNorm): LayerNorm((384,), eps=1e-05, elementwise_affine=True)
                (dropout): Dropout(p=0.1, inplace=False)
              )
            )
            (intermediate): XLMRobertaIntermediate(
              (dense): Linear(in_features=384, out_features=1536, bias=True)
              (intermediate_act_fn): GELUActivation()
            )
            (output): XLMRobertaOutput(
              (dense): Linear(in_features=1536, out_features=384, bias=True)
              (LayerNorm): LayerNorm((384,), eps=1e-05, elementwise_affine=True)
              (dropout): Dropout(p=0.1, inplace=False)
            )
          )
        )
      )
      (pooler): XLMRobertaPooler(
        (dense): Linear(in_features=384, out_features=384, bias=True)
        (activation): Tanh()
      )
    )
  )
  (locked_dropout): LockedDropout(p=0.5)
  (embedding2nn): Linear(in_features=384, out_features=384, bias=True)
  (linear): Linear(in_features=384, out_features=33, bias=True)
  (loss_function): CrossEntropyLoss()
)"
2024-06-13 07:07:44,743 ----------------------------------------------------------------------------------------------------
2024-06-13 07:07:44,744 Corpus: 1200 train + 150 dev + 150 test sentences
2024-06-13 07:07:44,744 ----------------------------------------------------------------------------------------------------
…
